…
del.from_pretrained(\"openai/clip-vit-base-patch32\")\n\nmodel = model.to(device)\nmodel.eval()","metadata":{"trusted":true,"execution":{"iopub.status.busy":"2026-01-16T16:45:07.061224Z","iopub.execute_input":"2026-01-16T16:45:07.061656Z","iopub.status.idle":"2026-01-16T16:45:10.177920Z","shell.execute_reply.started":"2026-01-16T16:45:07.061617Z","shell.execute_reply":"2026-01-16T16:45:10.177000Z"}},"outputs":[{"execution_count":82,"output_type":"execute_result","data":{"text/plain":"CLIPModel(\n  (text_model): CLIPTextTransformer(\n    (embeddings): CLIPTextEmbeddings(\n      (token_embedding): Embedding(49408, 512)\n      (position_embedding): Embedding(77, 512)\n    )\n    (encoder): CLIPEncoder(\n      (layers): ModuleList(\n        (0-11): 12 x CLIPEncoderLayer(\n          (self_attn): CLIPAttention(\n            (k_proj): Linear(in_features=512, out_features=512, bias=True)\n            (v_proj): Linear(in_features=512, out_features=512, bias=True)\n            (q_proj): Linear(in_features=512, out_features=512, bias=True)\n            (out_proj): Linear(in_features=512, out_features=512, bias=True)\n          )\n          (layer_norm1): LayerNorm((512,), eps=1e-05, elementwise_affine=True)\n          (mlp): CLIPMLP(\n            (activation_fn): QuickGELUActivation()\n            (fc1): Linear(in_features=512, out_features=2048, bias=True)\n            (fc2): Linear(in_features=2048, out_features=512, bias=True)\n          )\n          (layer_norm2): LayerNorm((512,), eps=1e-05, elementwise_affine=True)\n        )\n      )\n    )\n    (final_layer_norm): LayerNorm((512,), eps=1e-05, elementwise_affine=True)\n  )\n  (vision_model): CLIPVisionTransformer(\n    (embeddings): CLIPVisionEmbeddings(\n      (patch_embedding): Conv2d(3, 768, kernel_size=(32, 32), stride=(32, 32), bias=False)\n      (position_embedding): Embedding(50, 768)\n    )\n    (pre_layrnorm): LayerNorm((768,), eps=1e-05, elementwise_affine=True)\n    (encoder): CLIPEncoder(\n      (layers): ModuleList(\n        (0-11): 12 x CLIPEncoderLayer(\n          (self_attn): CLIPAttention(\n            (k_proj): Linear(in_features=768, out_features=768, bias=True)\n            (v_proj): Linear(in_features=768, out_features=768, bias=True)\n            (q_proj): Linear(in_features=768, out_features=768, bias=True)\n            (out_proj): Linear(in_features=768, out_features=768, bias=True)\n          )\n          (layer_norm1): LayerNorm((768,), eps=1e-05, elementwise_affine=True)\n          (mlp): CLIPMLP(\n            (activation_fn): QuickGELUActivation()\n            (fc1): Linear(in_features=768, out_features=3072, bias=True)\n            (fc2): Linear(in_features=3072, out_features=768, bias=True)\n          )\n          (layer_norm2): LayerNorm((768,), eps=1e-05, elementwise_affine=True)\n        )\n      )\n    )\n    (post_layernorm): LayerNorm((768,), eps=1e-05, elementwise_affine=True)\n  )\n  (visual_projection): Linear(in_features=768, out_features=512, bias=False)\n  (text_projection): Linear(in_features=512, out_features=512, bias=False)\n)"},"metadata":{}}],"execution_count":82},{"cell_type":"code","source":"df = pd.read_csv('/kaggle/input/dataset/Merged_data.csv')\ndf.info()","metadata":{"trusted":true,"execution":{"iopub.status.busy":"2026-01-16T16:45:10.179364Z","iopub.execute_input":"2026-01-16T16:45:10.179735Z","iopub.status.idle":"2026-01-16T16:45:10.311229Z","shell.execute_rep
…
